Conv2D specnorm params
=> big parameter increase! :O || spoiler

Layer (type)                    Output Shape         Param #     Connected to                     
==================================================================================================
word_input (InputLayer)         [(None, 200)]        0                                            
__________________________________________________________________________________________________
word_embedding (Embedding)      (None, 200, 100)     2000000     word_input[0][0]                 
__________________________________________________________________________________________________
lambda (Lambda)                 (None, 200, 100, 1)  0           word_embedding[0][0]             
__________________________________________________________________________________________________
spectral_normalization_conv2d ( (None, 198, 1, 100)  2050100     lambda[0][0]                     
__________________________________________________________________________________________________
spectral_normalization_conv2d_1 (None, 197, 1, 100)  2060100     lambda[0][0]                     
__________________________________________________________________________________________________
spectral_normalization_conv2d_2 (None, 196, 1, 100)  2070100     lambda[0][0]                     
__________________________________________________________________________________________________
dropout (Dropout)               (None, 198, 1, 100)  0           spectral_normalization_conv2d[0][
__________________________________________________________________________________________________
dropout_1 (Dropout)             (None, 197, 1, 100)  0           spectral_normalization_conv2d_1[0
__________________________________________________________________________________________________
dropout_2 (Dropout)             (None, 196, 1, 100)  0           spectral_normalization_conv2d_2[0
__________________________________________________________________________________________________
max_pooling_3 (MaxPooling2D)    (None, 101, 1, 100)  0           dropout[0][0]                    
__________________________________________________________________________________________________
max_pooling_4 (MaxPooling2D)    (None, 101, 1, 100)  0           dropout_1[0][0]                  
__________________________________________________________________________________________________
max_pooling_5 (MaxPooling2D)    (None, 101, 1, 100)  0           dropout_2[0][0]                  
__________________________________________________________________________________________________
concatenate (Concatenate)       (None, 101, 1, 300)  0           max_pooling_3[0][0]              
                                                                 max_pooling_4[0][0]              
                                                                 max_pooling_5[0][0]              
__________________________________________________________________________________________________
flatten (Flatten)               (None, 30300)        0           concatenate[0][0]                
__________________________________________________________________________________________________
dropout_3 (Dropout)             (None, 30300)        0           flatten[0][0]                    
==================================================================================================
Total params: 8,180,300
Trainable params: 2,120,300
Non-trainable params: 6,060,000
__________________________________________________________________________________________________
(Pdb++) 

Conv1D specnorm params
__________________________________________________________________________________________________
Layer (type)                    Output Shape         Param #     Connected to                     
==================================================================================================
word_input (InputLayer)         [(None, 200)]        0                                            
__________________________________________________________________________________________________
word_embedding (Embedding)      (None, 200, 100)     2000000     word_input[0][0]                 
__________________________________________________________________________________________________
conv1d (SpectralNormalization)  (None, 198, 100)     30500       word_embedding[0][0]             
__________________________________________________________________________________________________
conv1d_1 (SpectralNormalization (None, 197, 100)     40600       word_embedding[0][0]             
__________________________________________________________________________________________________
conv1d_2 (SpectralNormalization (None, 196, 100)     50700       word_embedding[0][0]             
__________________________________________________________________________________________________
dropout (Dropout)               (None, 198, 100)     0           conv1d[0][0]                     
__________________________________________________________________________________________________
dropout_1 (Dropout)             (None, 197, 100)     0           conv1d_1[0][0]                   
__________________________________________________________________________________________________
dropout_2 (Dropout)             (None, 196, 100)     0           conv1d_2[0][0]                   
__________________________________________________________________________________________________
global_max_pooling1d (GlobalMax (None, 100)          0           dropout[0][0]                    
__________________________________________________________________________________________________
global_max_pooling1d_1 (GlobalM (None, 100)          0           dropout_1[0][0]                  
__________________________________________________________________________________________________
global_max_pooling1d_2 (GlobalM (None, 100)          0           dropout_2[0][0]                  
__________________________________________________________________________________________________
activation (Activation)         (None, 100)          0           global_max_pooling1d[0][0]       
__________________________________________________________________________________________________
activation_1 (Activation)       (None, 100)          0           global_max_pooling1d_1[0][0]     
__________________________________________________________________________________________________
activation_2 (Activation)       (None, 100)          0           global_max_pooling1d_2[0][0]     
__________________________________________________________________________________________________
concatenate (Concatenate)       (None, 300)          0           activation[0][0]                 
                                                                 activation_1[0][0]               
                                                                 activation_2[0][0]               
__________________________________________________________________________________________________
activation_3 (Activation)       (None, 300)          0           concatenate[0][0]                
__________________________________________________________________________________________________
dropout_3 (Dropout)             (None, 300)          0           activation_3[0][0]               
==================================================================================================
Total params: 2,121,800
Trainable params: 2,120,300
Non-trainable params: 1,500
__________________________________________________________________________________________________



Conv2D wrong specnorm

Model: "functional_1"
__________________________________________________________________________________________________
Layer (type)                    Output Shape         Param #     Connected to                     
==================================================================================================
word_input (InputLayer)         [(None, 200)]        0                                            
__________________________________________________________________________________________________
word_embedding (Embedding)      (None, 200, 100)     2000000     word_input[0][0]                 
__________________________________________________________________________________________________
lambda (Lambda)                 (None, 200, 100, 1)  0           word_embedding[0][0]             
__________________________________________________________________________________________________
spectral_normalization (Spectra (None, 198, 1, 100)  30500       lambda[0][0]                     
__________________________________________________________________________________________________
spectral_normalization_1 (Spect (None, 197, 1, 100)  40600       lambda[0][0]                     
__________________________________________________________________________________________________
spectral_normalization_2 (Spect (None, 196, 1, 100)  50700       lambda[0][0]                     
__________________________________________________________________________________________________
dropout (Dropout)               (None, 198, 1, 100)  0           spectral_normalization[0][0]     
__________________________________________________________________________________________________
dropout_1 (Dropout)             (None, 197, 1, 100)  0           spectral_normalization_1[0][0]   
__________________________________________________________________________________________________
dropout_2 (Dropout)             (None, 196, 1, 100)  0           spectral_normalization_2[0][0]   
__________________________________________________________________________________________________
max_pooling_3 (MaxPooling2D)    (None, 101, 1, 100)  0           dropout[0][0]                    
__________________________________________________________________________________________________
max_pooling_4 (MaxPooling2D)    (None, 101, 1, 100)  0           dropout_1[0][0]                  
__________________________________________________________________________________________________
max_pooling_5 (MaxPooling2D)    (None, 101, 1, 100)  0           dropout_2[0][0]                  
__________________________________________________________________________________________________
concatenate (Concatenate)       (None, 101, 1, 300)  0           max_pooling_3[0][0]              
                                                                 max_pooling_4[0][0]              
                                                                 max_pooling_5[0][0]              
__________________________________________________________________________________________________
flatten (Flatten)               (None, 30300)        0           concatenate[0][0]                
__________________________________________________________________________________________________
dropout_3 (Dropout)             (None, 30300)        0           flatten[0][0]                    
==================================================================================================
Total params: 2,121,800
Trainable params: 2,120,300
Non-trainable params: 1,500
__________________________________________________________________________________________________


base_learning_rate
bert_ckpt_dir
bert_config_dir
bert_dir
checkpoint_interval
…
